…
ame': None, 'store_ema': False, 'ema_decay': 0.9999, 'ema_start_update': 0, 'ema_seed_model': None, 'ema_update_freq': 1, 'ema_fp32': False}, 'simul_type': None}\n",
            "2022-05-26 15:25:52 | INFO | fairseq.tasks.translation | [incor] dictionary: 37472 types\n",
            "2022-05-26 15:25:52 | INFO | fairseq.tasks.translation | [cor] dictionary: 38992 types\n",
            "2022-05-26 15:25:56 | INFO | fairseq_cli.train | TransformerModel(\n",
            "  (encoder): TransformerEncoderBase(\n",
            "    (dropout_module): FairseqDropout()\n",
            "    (embed_tokens): Embedding(37472, 1024, padding_idx=1)\n",
            "    (embed_positions): SinusoidalPositionalEmbedding()\n",
            "    (layers): ModuleList(\n",
            "      (0): TransformerEncoderLayerBase(\n",
            "        (self_attn): MultiheadAttention(\n",
            "          (dropout_module): FairseqDropout()\n",
            "          (k_proj): Linear(in_features=1024, out_features=1024, bias=True)\n",
            "          (v_proj): Linear(in_features=1024, out_features=1024, bias=True)\n",
            "          (q_proj): Linear(in_features=1024, out_features=1024, bias=True)\n",
            "          (out_proj): Linear(in_features=1024, out_features=1024, bias=True)\n",
            "        )\n",
            "        (self_attn_layer_norm): LayerNorm((1024,), eps=1e-05, elementwise_affine=True)\n",
            "        (dropout_module): FairseqDropout()\n",
            "        (activation_dropout_module): FairseqDropout()\n",
            "        (fc1): Linear(in_features=1024, out_features=4096, bias=True)\n",
            "        (fc2): Linear(in_features=4096, out_features=1024, bias=True)\n",
            "        (final_layer_norm): LayerNorm((1024,), eps=1e-05, elementwise_affine=True)\n",
            "      )\n",
            "      (1): TransformerEncoderLayerBase(\n",
            "        (self_attn): MultiheadAttention(\n",
            "          (dropout_module): FairseqDropout()\n",
            "          (k_proj): Linear(in_features=1024, out_features=1024, bias=True)\n",
            "          (v_proj): Linear(in_features=1024, out_features=1024, bias=True)\n",
            "          (q_proj): Linear(in_features=1024, out_features=1024, bias=True)\n",
            "          (out_proj): Linear(in_features=1024, out_features=1024, bias=True)\n",
            "        )\n",
            "        (self_attn_layer_norm): LayerNorm((1024,), eps=1e-05, elementwise_affine=True)\n",
            "        (dropout_module): FairseqDropout()\n",
            "        (activation_dropout_module): FairseqDropout()\n",
            "        (fc1): Linear(in_features=1024, out_features=4096, bias=True)\n",
            "        (fc2): Linear(in_features=4096, out_features=1024, bias=True)\n",
            "        (final_layer_norm): LayerNorm((1024,), eps=1e-05, elementwise_affine=True)\n",
            "      )\n",
            "      (2): TransformerEncoderLayerBase(\n",
            "        (self_attn): MultiheadAttention(\n",
            "          (dropout_module): FairseqDropout()\n",
            "          (k_proj): Linear(in_features=1024, out_features=1024, bias=True)\n",
            "          (v_proj): Linear(in_features=1024, out_features=1024, bias=True)\n",
            "          (q_proj): Linear(in_features=1024, out_features=1024, bias=True)\n",
            "          (out_proj): Linear(in_features=1024, out_features=1024, bias=True)\n",
            "        )\n",
            "        (self_attn_layer_norm): LayerNorm((1024,), eps=1e-05, elementwise_affine=True)\n",
            "        (dropout_module): FairseqDropout()\n",
            "        (activation_dropout_module): FairseqDropout()\n",
            "        (fc1): Linear(in_features=1024, out_features=4096, bias=True)\n",
            "        (fc2): Linear(in_features=4096, out_features=1024, bias=True)\n",
            "        (final_layer_norm): LayerNorm((1024,), eps=1e-05, elementwise_affine=True)\n",
            "      )\n",
            "      (3): TransformerEncoderLayerBase(\n",
            "        (self_attn): MultiheadAttention(\n",
            "          (dropout_module): FairseqDropout()\n",
            "          (k_proj): Linear(in_features=1024, out_features=1024, bias=True)\n",
            "          (v_proj): Linear(in_features=1024, out_features=1024, bias=True)\n",
            "          (q_proj): Linear(in_features=1024, out_features=1024, bias=True)\n",
            "          (out_proj): Linear(in_features=1024, out_features=1024, bias=True)\n",
            "        )\n",
            "        (self_attn_layer_norm): LayerNorm((1024,), eps=1e-05, elementwise_affine=True)\n",
            "        (dropout_module): FairseqDropout()\n",
            "        (activation_dropout_module): FairseqDropout()\n",
            "        (fc1): Linear(in_features=1024, out_features=4096, bias=True)\n",
            "        (fc2): Linear(in_features=4096, out_features=1024, bias=True)\n",
            "        (final_layer_norm): LayerNorm((1024,), eps=1e-05, elementwise_affine=True)\n",
            "      )\n",
            "      (4): TransformerEncoderLayerBase(\n",
            "        (self_attn): MultiheadAttention(\n",
            "          (dropout_module): FairseqDropout()\n",
            "          (k_proj): Linear(in_features=1024, out_features=1024, bias=True)\n",
            "          (v_proj): Linear(in_features=1024, out_features=1024, bias=True)\n",
            "          (q_proj): Linear(in_features=1024, out_features=1024, bias=True)\n",
            "          (out_proj): Linear(in_features=1024, out_features=1024, bias=True)\n",
            "        )\n",
            "        (self_attn_layer_norm): LayerNorm((1024,), eps=1e-05, elementwise_affine=True)\n",
            "        (dropout_module): FairseqDropout()\n",
            "        (activation_dropout_module): FairseqDropout()\n",
            "        (fc1): Linear(in_features=1024, out_features=4096, bias=True)\n",
            "        (fc2): Linear(in_features=4096, out_features=1024, bias=True)\n",
            "        (final_layer_norm): LayerNorm((1024,), eps=1e-05, elementwise_affine=True)\n",
            "      )\n",
            "      (5): TransformerEncoderLayerBase(\n",
            "        (self_attn): MultiheadAttention(\n",
            "          (dropout_module): FairseqDropout()\n",
            "          (k_proj): Linear(in_features=1024, out_features=1024, bias=True)\n",
            "          (v_proj): Linear(in_features=1024, out_features=1024, bias=True)\n",
            "          (q_proj): Linear(in_features=1024, out_features=1024, bias=True)\n",
            "          (out_proj): Linear(in_features=1024, out_features=1024, bias=True)\n",
            "        )\n",
            "        (self_attn_layer_norm): LayerNorm((1024,), eps=1e-05, elementwise_affine=True)\n",
            "        (dropout_module): FairseqDropout()\n",
            "        (activation_dropout_module): FairseqDropout()\n",
            "        (fc1): Linear(in_features=1024, out_features=4096, bias=True)\n",
            "        (fc2): Linear(in_features=4096, out_features=1024, bias=True)\n",
            "        (final_layer_norm): LayerNorm((1024,), eps=1e-05, elementwise_affine=True)\n",
            "      )\n",
            "    )\n",
            "  )\n",
            "  (decoder): TransformerDecoderBase(\n",
            "    (dropout_module): FairseqDropout()\n",
            "    (embed_tokens): Embedding(38992, 1024, padding_idx=1)\n",
            "    (embed_positions): SinusoidalPositionalEmbedding()\n",
            "    (layers): ModuleList(\n",
            "      (0): TransformerDecoderLayerBase(\n",
            "        (dropout_module): FairseqDropout()\n",
            "        (self_attn): MultiheadAttention(\n",
            "          (dropout_module): FairseqDropout()\n",
            "          (k_proj): Linear(in_features=1024, out_features=1024, bias=True)\n",
            "          (v_proj): Linear(in_features=1024, out_features=1024, bias=True)\n",
            "          (q_proj): Linear(in_features=1024, out_features=1024, bias=True)\n",
            "          (out_proj): Linear(in_features=1024, out_features=1024, bias=True)\n",
            "        )\n",
            "        (activation_dropout_module): FairseqDropout()\n",
            "        (self_attn_layer_norm): LayerNorm((1024,), eps=1e-05, elementwise_affine=True)\n",
            "        (encoder_attn): MultiheadAttention(\n",
            "          (dropout_module): FairseqDropout()\n",
            "          (k_proj): Linear(in_features=1024, out_features=1024, bias=True)\n",
            "          (v_proj): Linear(in_features=1024, out_features=1024, bias=True)\n",
            "          (q_proj): Linear(in_features=1024, out_features=1024, bias=True)\n",
            "          (out_proj): Linear(in_features=1024, out_features=1024, bias=True)\n",
            "        )\n",
            "        (encoder_attn_layer_norm): LayerNorm((1024,), eps=1e-05, elementwise_affine=True)\n",
            "        (fc1): Linear(in_features=1024, out_features=4096, bias=True)\n",
            "        (fc2): Linear(in_features=4096, out_features=1024, bias=True)\n",
            "        (final_layer_norm): LayerNorm((1024,), eps=1e-05, elementwise_affine=True)\n",
            "      )\n",
            "      (1): TransformerDecoderLayerBase(\n",
            "        (dropout_module): FairseqDropout()\n",
            "        (self_attn): MultiheadAttention(\n",
            "          (dropout_module): FairseqDropout()\n",
            "          (k_proj): Linear(in_features=1024, out_features=1024, bias=True)\n",
            "          (v_proj): Linear(in_features=1024, out_features=1024, bias=True)\n",
            "          (q_proj): Linear(in_features=1024, out_features=1024, bias=True)\n",
            "          (out_proj): Linear(in_features=1024, out_features=1024, bias=True)\n",
            "        )\n",
            "        (activation_dropout_module): FairseqDropout()\n",
            "        (self_attn_layer_norm): LayerNorm((1024,), eps=1e-05, elementwise_affine=True)\n",
            "        (encoder_attn): MultiheadAttention(\n",
            "          (dropout_module): FairseqDropout()\n",
            "          (k_proj): Linear(in_features=1024, out_features=1024, bias=True)\n",
            "          (v_proj): Linear(in_features=1024, out_features=1024, bias=True)\n",
            "          (q_proj): Linear(in_features=1024, out_features=1024, bias=True)\n",
            "          (out_proj): Linear(in_features=1024, out_features=1024, bias=True)\n",
            "        )\n",
            "        (encoder_attn_layer_norm): LayerNorm((1024,), eps=1e-05, elementwise_affine=True)\n",
            "        (fc1): Linear(in_features=1024, out_features=4096, bias=True)\n",
            "        (fc2): Linear(in_features=4096, out_features=1024, bias=True)\n",
            "        (final_layer_norm): LayerNorm((1024,), eps=1e-05, elementwise_affine=True)\n",
            "      )\n",
            "      (2): TransformerDecoderLayerBase(\n",
            "        (dropout_module): FairseqDropout()\n",
            "        (self_attn): MultiheadAttention(\n",
            "          (dropout_module): FairseqDropout()\n",
            "          (k_proj): Linear(in_features=1024, out_features=1024, bias=True)\n",
            "          (v_proj): Linear(in_features=1024, out_features=1024, bias=True)\n",
            "          (q_proj): Linear(in_features=1024, out_features=1024, bias=True)\n",
            "          (out_proj): Linear(in_features=1024, out_features=1024, bias=True)\n",
            "        )\n",
            "        (activation_dropout_module): FairseqDropout()\n",
            "        (self_attn_layer_norm): LayerNorm((1024,), eps=1e-05, elementwise_affine=True)\n",
            "        (encoder_attn): MultiheadAttention(\n",
            "          (dropout_module): FairseqDropout()\n",
            "          (k_proj): Linear(in_features=1024, out_features=1024, bias=True)\n",
            "          (v_proj): Linear(in_features=1024, out_features=1024, bias=True)\n",
            "          (q_proj): Linear(in_features=1024, out_features=1024, bias=True)\n",
            "          (out_proj): Linear(in_features=1024, out_features=1024, bias=True)\n",
            "        )\n",
            "        (encoder_attn_layer_norm): LayerNorm((1024,), eps=1e-05, elementwise_affine=True)\n",
            "        (fc1): Linear(in_features=1024, out_features=4096, bias=True)\n",
            "        (fc2): Linear(in_features=4096, out_features=1024, bias=True)\n",
            "        (final_layer_norm): LayerNorm((1024,), eps=1e-05, elementwise_affine=True)\n",
            "      )\n",
            "      (3): TransformerDecoderLayerBase(\n",
            "        (dropout_module): FairseqDropout()\n",
            "        (self_attn): MultiheadAttention(\n",
            "          (dropout_module): FairseqDropout()\n",
            "          (k_proj): Linear(in_features=1024, out_features=1024, bias=True)\n",
            "          (v_proj): Linear(in_features=1024, out_features=1024, bias=True)\n",
            "          (q_proj): Linear(in_features=1024, out_features=1024, bias=True)\n",
            "          (out_proj): Linear(in_features=1024, out_features=1024, bias=True)\n",
            "        )\n",
            "        (activation_dropout_module): FairseqDropout()\n",
            "        (self_attn_layer_norm): LayerNorm((1024,), eps=1e-05, elementwise_affine=True)\n",
            "        (encoder_attn): MultiheadAttention(\n",
            "          (dropout_module): FairseqDropout()\n",
            "          (k_proj): Linear(in_features=1024, out_features=1024, bias=True)\n",
            "          (v_proj): Linear(in_features=1024, out_features=1024, bias=True)\n",
            "          (q_proj): Linear(in_features=1024, out_features=1024, bias=True)\n",
            "          (out_proj): Linear(in_features=1024, out_features=1024, bias=True)\n",
            "        )\n",
            "        (encoder_attn_layer_norm): LayerNorm((1024,), eps=1e-05, elementwise_affine=True)\n",
            "        (fc1): Linear(in_features=1024, out_features=4096, bias=True)\n",
            "        (fc2): Linear(in_features=4096, out_features=1024, bias=True)\n",
            "        (final_layer_norm): LayerNorm((1024,), eps=1e-05, elementwise_affine=True)\n",
            "      )\n",
            "      (4): TransformerDecoderLayerBase(\n",
            "        (dropout_module): FairseqDropout()\n",
            "        (self_attn): MultiheadAttention(\n",
            "          (dropout_module): FairseqDropout()\n",
            "          (k_proj): Linear(in_features=1024, out_features=1024, bias=True)\n",
            "          (v_proj): Linear(in_features=1024, out_features=1024, bias=True)\n",
            "          (q_proj): Linear(in_features=1024, out_features=1024, bias=True)\n",
            "          (out_proj): Linear(in_features=1024, out_features=1024, bias=True)\n",
            "        )\n",
            "        (activation_dropout_module): FairseqDropout()\n",
            "        (self_attn_layer_norm): LayerNorm((1024,), eps=1e-05, elementwise_affine=True)\n",
            "        (encoder_attn): MultiheadAttention(\n",
            "          (dropout_module): FairseqDropout()\n",
            "          (k_proj): Linear(in_features=1024, out_features=1024, bias=True)\n",
            "          (v_proj): Linear(in_features=1024, out_features=1024, bias=True)\n",
            "          (q_proj): Linear(in_features=1024, out_features=1024, bias=True)\n",
            "          (out_proj): Linear(in_features=1024, out_features=1024, bias=True)\n",
            "        )\n",
            "        (encoder_attn_layer_norm): LayerNorm((1024,), eps=1e-05, elementwise_affine=True)\n",
            "        (fc1): Linear(in_features=1024, out_features=4096, bias=True)\n",
            "        (fc2): Linear(in_features=4096, out_features=1024, bias=True)\n",
            "        (final_layer_norm): LayerNorm((1024,), eps=1e-05, elementwise_affine=True)\n",
            "      )\n",
            "      (5): TransformerDecoderLayerBase(\n",
            "        (dropout_module): FairseqDropout()\n",
            "        (self_attn): MultiheadAttention(\n",
            "          (dropout_module): FairseqDropout()\n",
            "          (k_proj): Linear(in_features=1024, out_features=1024, bias=True)\n",
            "          (v_proj): Linear(in_features=1024, out_features=1024, bias=True)\n",
            "          (q_proj): Linear(in_features=1024, out_features=1024, bias=True)\n",
            "          (out_proj): Linear(in_features=1024, out_features=1024, bias=True)\n",
            "        )\n",
            "        (activation_dropout_module): FairseqDropout()\n",
            "        (self_attn_layer_norm): LayerNorm((1024,), eps=1e-05, elementwise_affine=True)\n",
            "        (encoder_attn): MultiheadAttention(\n",
            "          (dropout_module): FairseqDropout()\n",
            "          (k_proj): Linear(in_features=1024, out_features=1024, bias=True)\n",
            "          (v_proj): Linear(in_features=1024, out_features=1024, bias=True)\n",
            "          (q_proj): Linear(in_features=1024, out_features=1024, bias=True)\n",
            "          (out_proj): Linear(in_features=1024, out_features=1024, bias=True)\n",
            "        )\n",
            "        (encoder_attn_layer_norm): LayerNorm((1024,), eps=1e-05, elementwise_affine=True)\n",
            "        (fc1): Linear(in_features=1024, out_features=4096, bias=True)\n",
            "        (fc2): Linear(in_features=4096, out_features=1024, bias=True)\n",
            "        (final_layer_norm): LayerNorm((1024,), eps=1e-05, elementwise_affine=True)\n",
            "      )\n",
            "    )\n",
            "    (output_projection): Linear(in_features=1024, out_features=38992, bias=False)\n",
            "  )\n",
            ")\n",
            "2022-05-26 15:25:56 | INFO | fairseq_cli.train | task: TranslationTask\n",
            "2022-05-26 15:25:56 | INFO | fairseq_cli.train | model: TransformerModel\n",
            "2022-05-26 15:25:56 | INFO | fairseq_cli.train | criterion: LabelSmoothedCrossEntropyCriterion\n",
            "2022-05-26 15:25:56 | INFO | fairseq_cli.train | num. shared model params: 294,584,320 (num. trained: 294,584,320)\n",
…
